…
    value: 0.99
learning_rate:
    value: 0.0003
lr_schedule:
    value: <function get_schedule_fn.<locals>.<lambda> at 0x0000020909D265F0>
max_grad_norm:
    value: 0.5
max_steps:
    value: 100
n_envs:
    value: 1
n_epochs:
    value: 10
n_steps:
    value: 2048
normalize_advantage:
    value: "True"
num_timesteps:
    value: 0
observation_space:
    value: 'Dict(''image'': Box(0, 255, (3, 7, 7), uint8))'
policy:
    value: |-
        MultiInputActorCriticPolicy(
          (features_extractor): ObjEnvExtractor(
            (extractors): ModuleDict(
              (image): Sequential(
                (0): Conv2d(3, 16, kernel_size=(2, 2), stride=(1, 1))
                (1): ReLU()
                (2): Conv2d(16, 32, kernel_size=(2, 2), stride=(1, 1))
                (3): ReLU()
                (4): Conv2d(32, 64, kernel_size=(2, 2), stride=(1, 1))
                (5): ReLU()
                (6): Flatten(start_dim=1, end_dim=-1)
                (7): Linear(in_features=1024, out_features=64, bias=True)
                (8): ReLU()
              )
            )
          )
          (pi_features_extractor): ObjEnvExtractor(
            (extractors): ModuleDict(
              (image): Sequential(
                (0): Conv2d(3, 16, kernel_size=(2, 2), stride=(1, 1))
                (1): ReLU()
                (2): Conv2d(16, 32, kernel_size=(2, 2), stride=(1, 1))
                (3): ReLU()
                (4): Conv2d(32, 64, kernel_size=(2, 2), stride=(1, 1))
                (5): ReLU()
                (6): Flatten(start_dim=1, end_dim=-1)
                (7): Linear(in_features=1024, out_features=64, bias=True)
                (8): ReLU()
              )
            )
          )
          (vf_features_extractor): ObjEnvExtractor(
            (extractors): ModuleDict(
              (image): Sequential(
                (0): Conv2d(3, 16, kernel_size=(2, 2), stride=(1, 1))
                (1): ReLU()
                (2): Conv2d(16, 32, kernel_size=(2, 2), stride=(1, 1))
                (3): ReLU()
                (4): Conv2d(32, 64, kernel_size=(2, 2), stride=(1, 1))
                (5): ReLU()
                (6): Flatten(start_dim=1, end_dim=-1)
                (7): Linear(in_features=1024, out_features=64, bias=True)
                (8): ReLU()
              )
            )
          )
          (mlp_extractor): MlpExtractor(
            (policy_net): Sequential(
              (0): Linear(in_features=64, out_features=64, bias=True)
              (1): Tanh()
              (2): Linear(in_features=64, out_features=64, bias=True)
              (3): Tanh()
            )
            (value_net): Sequential(
              (0): Linear(in_features=64, out_features=64, bias=True)
              (1): Tanh()
              (2): Linear(in_features=64, out_features=64, bias=True)
              (3): Tanh()
            )
          )
          (action_net): Linear(in_features=64, out_features=7, bias=True)
          (value_net): Linear(in_features=64, out_features=1, bias=True)
        )
policy_class:
    value: <class 'stable_baselines3.common.policies.MultiInputActorCriticPolicy'>
policy_kwargs:
    value: '{''features_extractor_class'': <class ''__main__.ObjEnvExtractor''>}'
preference_vector:
    value:
        - 2
        - 2
        - 2
        - -3
        - 0.2
rollout_buffer:
    value: <stable_baselines3.common.buffers.DictRolloutBuffer object at 0x0000020909D44370>
…
