…
mon.buffers.DictRolloutBuffer'>", 'rollout_buffer_kwargs': '{}', 'batch_size': 32, 'n_epochs': 10, 'clip_range': '<function get_schedule_fn.<locals>.<lambda> at 0x00000210AC2F9F30>', 'clip_range_vf': 'None', 'normalize_advantage': 'True', 'target_kl': 'None', 'lr_schedule': '<function get_schedule_fn.<locals>.<lambda> at 0x000002109DEB9000>', 'rollout_buffer': '<stable_baselines3.common.buffers.DictRolloutBuffer object at 0x0000021097A41690>', 'policy': 'MultiInputActorCriticPolicy(\n  (features_extractor): ObjEnvExtractor(\n    (extractors): ModuleDict(\n      (image): Sequential(\n        (0): Conv2d(3, 16, kernel_size=(2, 2), stride=(1, 1))\n        (1): ReLU()\n        (2): Conv2d(16, 32, kernel_size=(2, 2), stride=(1, 1))\n        (3): ReLU()\n        (4): Conv2d(32, 64, kernel_size=(2, 2), stride=(1, 1))\n        (5): ReLU()\n        (6): Flatten(start_dim=1, end_dim=-1)\n        (7): Linear(in_features=1024, out_features=64, bias=True)\n        (8): ReLU()\n      )\n    )\n  )\n  (pi_features_extractor): ObjEnvExtractor(\n    (extractors): ModuleDict(\n      (image): Sequential(\n        (0): Conv2d(3, 16, kernel_size=(2, 2), stride=(1, 1))\n        (1): ReLU()\n        (2): Conv2d(16, 32, kernel_size=(2, 2), stride=(1, 1))\n        (3): ReLU()\n        (4): Conv2d(32, 64, kernel_size=(2, 2), stride=(1, 1))\n        (5): ReLU()\n        (6): Flatten(start_dim=1, end_dim=-1)\n        (7): Linear(in_features=1024, out_features=64, bias=True)\n        (8): ReLU()\n      )\n    )\n  )\n  (vf_features_extractor): ObjEnvExtractor(\n    (extractors): ModuleDict(\n      (image): Sequential(\n        (0): Conv2d(3, 16, kernel_size=(2, 2), stride=(1, 1))\n        (1): ReLU()\n        (2): Conv2d(16, 32, kernel_size=(2, 2), stride=(1, 1))\n        (3): ReLU()\n        (4): Conv2d(32, 64, kernel_size=(2, 2), stride=(1, 1))\n        (5): ReLU()\n        (6): Flatten(start_dim=1, end_dim=-1)\n        (7): Linear(in_features=1024, out_features=64, bias=True)\n        (8): ReLU()\n      )\n    )\n  )\n  (mlp_extractor): MlpExtractor(\n    (policy_net): Sequential(\n      (0): Linear(in_features=64, out_features=64, bias=True)\n      (1): Tanh()\n      (2): Linear(in_features=64, out_features=64, bias=True)\n      (3): Tanh()\n    )\n    (value_net): Sequential(\n      (0): Linear(in_features=64, out_features=64, bias=True)\n      (1): Tanh()\n      (2): Linear(in_features=64, out_features=64, bias=True)\n      (3): Tanh()\n    )\n  )\n  (action_net): Linear(in_features=64, out_features=7, bias=True)\n  (value_net): Linear(in_features=64, out_features=1, bias=True)\n)', '_logger': '<stable_baselines3.common.logger.Logger object at 0x00000210AC2E2EF0>'}
2025-01-06 16:36:28,090 INFO    MainThread:19520 [sb3.py:save_model():147] Saving model checkpoint to ./models/wandb_models/[3, 1, 0, -4, 0.2]\model.zip
2025-01-06 16:56:37,233 INFO    MainThread:19520 [sb3.py:save_model():147] Saving model checkpoint to ./models/wandb_models/[3, 1, 0, -4, 0.2]\model.zip
…
